Trained_Weights.pt (torch, 323376 bytes, 10 tensors)

block1.0.weight f4 [10, 3, 3, 3]
000000 39 c7 7f 3e fb 95 8f 3d 66 b8 2b 3e 83 61 b3 bd
       0.24978341 0.070110284 0.16769561 -0.08758833
000010 f8 27 b6 3d c7 8a b7 3d 97 8b cf bd 51 00 0f bc
       0.08894342 0.089620166 -0.101340465 -0.008728103
000020 e9 7d 2a 3d 7b a1 2b 3d c4 95 a6 bd 9b 6e 01 3d
       0.041623984 0.041902047 -0.08134034 0.031599622
000030 36 76 6c 3d 49 c4 a2 3d 26 d6 2a be 42 4e 46 be
       0.057729922 0.07947595 -0.16683254 -0.1936579
000040 53 14 8d 3d 64 8c 8f bd 1b 35 45 3e 41 b6 3d 3e
       0.06888642 -0.07009199 0.1925854 0.18526556
000050 5a a6 fb 3c 94 81 89 3d 2c b4 0f be a2 40 01 be
       0.030718971 0.06714168 -0.14033574 -0.12622312
000060 21 73 42 3e 6f 6e 30 3e d4 cc c8 3d 34 ee 77 bd
       0.1898923 0.17229627 0.09804693 -0.060529903
000070 74 60 18 3d d6 56 4a 3e 7a 4d af bd 12 72 0f 3b
       0.03720136 0.19759688 -0.08559699 0.002188806
000080 e5 13 1c be 23 93 c9 3d d8 66 36 3d a0 11 0f 3e
       -0.15241964 0.09842517 0.044531673 0.13971567
000090 2a 68 83 bd 5a cd dc 3d 17 41 b4 3d 55 fe 56 be
       -0.06416352 0.10781355 0.088014774 -0.20995457
0000a0 28 2a 4a bc ee 95 e1 3d 73 52 37 be 22 fd b8 bd
       -0.012339152 0.11014925 -0.17902546 -0.09032656
0000b0 c8 00 09 be 8d 88 aa 3d 81 01 86 3e 0d de a0 3e
       -0.13379204 0.08326826 0.26173022 0.3141941
0000c0 ba 23 be bd 0f 78 4a bd ec c3 8e 3e f6 8d 8e 3e
       -0.09284158 -0.049430903 0.27883852 0.27842683
0000d0 a8 0b 89 3e 71 de 62 3e bd c8 0e 3e 96 b6 80 3c
       0.26766706 0.22155167 0.13943763 0.015712064
0000e0 e0 dc 13 3e c1 5d ce 3c 68 ac 35 3e 05 f0 24 bd
       0.14439726 0.02519119 0.17741549 -0.040267963
0000f0 6a 3d a1 bd ec 95 25 be c2 6c f6 3d 50 ec ba bd
       -0.07873042 -0.16170472 0.12032463 -0.09127104
000100 a2 bc d8 3d 40 13 75 bd 8e 8c 09 bc e0 7d 25 3d
       0.10582854 -0.05983281 -0.008395327 0.040403247
000110 8d 15 a1 3d 5d a0 0f 3e 01 a8 18 be 04 6e 63 3c
       0.078654386 0.14026017 -0.14907838 0.01388121
000120 88 03 7d be 11 c0 5c be 76 9d 33 be 43 97 51 3d
       -0.24708378 -0.21557643 -0.17540535 0.051169645
000130 fc 0e 64 bd bd 3c 3b be ab d0 db bc 62 9c 03 bc
       -0.055678353 -0.18284889 -0.0268329 -0.00803289
000140 e5 ea 52 3d 40 70 47 be f9 37 b6 bd 81 42 cc 3d
       0.051493544 -0.19476414 -0.08897395 0.09973622
000150 c9 27 3e be 36 0a 6b be eb f2 51 be 95 80 e7 3d
       -0.18569864 -0.22953114 -0.20502822 0.11303822
000160 7a 8b 1d be 3f 33 38 be ca 87 3b 3d c5 ad da 3d
       -0.15385237 -0.17988299 0.045783795 0.10677675
000170 1a 7a ec bd 07 8c 10 3e 9f 7b 66 bd a3 b3 5a 3e
       -0.115467265 0.14115916 -0.056270238 0.21357588
000180 49 00 44 3e 5e a3 8c bd a4 68 2a 3e bd 73 ad bd
       0.19140734 -0.06867097 0.1664148 -0.08469341
000190 15 b1 7a 3e 97 50 98 3e d9 b4 84 3d f4 61 99 3e
       0.24481614 0.29748985 0.064798065 0.29957545
0001a0 9c d2 53 3b a2 71 43 3d 5b 3a ae 3d 4e d6 88 3e
       0.0032321578 0.04771579 0.08507224 0.26726002
0001b0 d6 f6 14 be a6 09 c1 bd e5 39 56 3e d4 c7 13 3e
       -0.14547285 -0.094256684 0.20920523 0.14431697
0001c0 a8 ee 25 3e 95 b1 fb 3d 61 36 20 3e 3c c2 0e be
       0.16204321 0.122897305 0.15645744 -0.13941282
0001d0 c3 a7 9d 3d b7 1d 18 3d 72 0c b3 bd 0a d7 bf 3d
       0.07698014 0.037137713 -0.08742608 0.09367187
0001e0 f1 af e5 bd 69 b4 0c be 17 da 68 be a2 fa 63 be
       -0.11215199 -0.13740696 -0.22739445 -0.22263578
0001f0 fb 2e 4f be 74 23 6f 3d f4 4f c7 bc 59 0e 82 3c
       -0.20232765 0.05838342 -0.024330117 0.015875982
000200 4f 9a 13 be aa 92 03 3e 16 74 3c be 98 d9 4d bd
       -0.14414333 0.12848917 -0.18403658 -0.05025634
000210 9b 5c c7 bb bc ea 5b bd 6f 1a 37 be a1 a6 36 be
       -0.0060840375 -0.053690657 -0.17881177 -0.17837001
000220 1e 6b fe bd 9a e5 c6 bd 78 6f 31 be 15 c6 0f 3d
       -0.12422775 -0.09711762 -0.17327678 0.035101015
000230 aa d2 ef bd 90 23 76 bd c2 bb 09 3e c6 31 92 bd
       -0.11710103 -0.06009251 0.1345053 -0.071384
000240 ce d1 00 bc 59 3d c4 bd 54 bf d4 bc b5 d5 62 3c
       -0.007862521 -0.09582014 -0.025970139 0.013844897
000250 51 98 11 3d 32 31 c5 bb 3f 8a 2a 3e 5a 64 0e be
       0.03554565 -0.0060178274 0.16654299 -0.13905469
000260 fb d9 53 3b e6 b3 9e bd d9 aa 41 be eb 2b 3d be
       0.0032325971 -0.07749157 -0.1891283 -0.18473785
000270 35 f0 39 3e 25 14 d9 3d 4f 76 22 be 99 48 8c bc
       0.18158038 0.105995454 -0.15865444 -0.017124461
000280 07 c8 36 be 5e 26 8d 3d fe 4b 75 3e 41 f7 6f 3e
       -0.17849742 0.068920836 0.2395477 0.23434164
000290 77 95 f9 3c 1a 24 34 3e dd e3 d7 3c 4f 32 cc 3d
       0.030466778 0.17591897 0.02635377 0.09970533
0002a0 6e 00 45 3d 1e 33 49 3c 38 ce 31 3e df 15 b3 3d
       0.048096113 0.012280254 0.17363822 0.08744406
0002b0 fc 00 bf bd 96 44 bf 3d 38 f7 26 be b5 48 08 3b
       -0.0932636 0.093392536 -0.16305244 0.002079529
0002c0 45 78 af 3c ca a7 60 3d c3 f8 ae bd 06 9f 37 3e
       0.021419654 0.054847516 -0.08543541 0.17931756
0002d0 c6 57 95 be 11 7b 4f be f7 3e ba be 59 2f 86 be
       -0.29168528 -0.2026179 -0.36376163 -0.26207998
0002e0 ac 0c 99 be dc 16 97 be e9 96 41 be 92 ba b3 be
       -0.2989248 -0.29509628 -0.18905224 -0.3510328
0002f0 b1 36 08 be 2f 6b 91 3d f4 44 98 bd 4e 23 2d 3e
       -0.13302113 0.07100522 -0.07435027 0.16907999
000300 0a 67 80 bd 75 c4 4b 3e 49 a1 8e 3e 81 41 6a bc
       -0.06269653 0.19899161 0.27857426 -0.014297844
000310 45 f3 9f bd c8 ee 83 3d d7 ac af be 12 65 68 be
       -0.07810072 0.06442028 -0.34311554 -0.22694805
000320 43 27 1f 3d 5c 81 8a be b8 04 25 be 2e 81 9c bd
       0.038855802 -0.27051818 -0.16115081 -0.076418266
000330 a6 91 9d be 1e a4 8d be 62 e2 3a be 6f 5a 98 3e
       -0.30775183 -0.27664274 -0.1825042 0.29756495
000340 72 67 6a 3d 32 74 76 3e 94 dc 91 bd bf 41 8a 3d
       0.05722756 0.24067762 -0.0712215 0.06750821
000350 5f 3c a7 3e 25 58 9f bd 16 40 e4 bc 42 c2 88 3e
       0.32663247 -0.07780484 -0.02786259 0.26710707
000360 4b e3 5d 3d 77 95 1a be af 32 5f 3d 77 8f 69 3d
       0.05417184 -0.15096079 0.054491695 0.057021584
000370 78 af 82 bd f7 32 13 be 75 1f b7 3d a1 d9 c1 3d
       -0.06381124 -0.1437491 0.08941547 0.094653375
000380 e2 5a 1c be 47 a9 f4 bd 88 39 f5 bb 53 cd a8 3d
       -0.15269044 -0.119463496 -0.007483665 0.082422875
000390 74 35 a4 bd 9b fd df ba 83 07 26 be fe f3 ce bc
       -0.08018008 -0.001708913 -0.16213803 -0.025262829
0003a0 eb 34 8e 3b 1a 15 05 3d 89 46 0b be dc 69 1e be
       0.0043398044 0.032490827 -0.13601126 -0.1547007
0003b0 20 b0 27 3e dd 7b 3e 3c 1e 25 51 3d 52 25 41 3c
       0.1637578 0.011626211 0.05106079 0.011788683
0003c0 6b 01 a9 bd fa 38 a0 3d 5e 67 ef bd ad 92 3c 3e
       -0.082522236 0.078233674 -0.116896376 0.18415327
0003d0 9a d8 72 3e 9a 75 81 3e 93 72 a1 bc 36 fa 82 3d
       0.2371544 0.25285035 -0.019707954 0.0639538
0003e0 7b 98 2b 3d 4d dd c4 3d ee 1b 2f 3d a7 dc 2c be
       0.041893464 0.09612522 0.042751245 -0.16881047
0003f0 60 a2 b8 bd ba 9d 78 3e 75 a4 86 3e f0 c8 81 bd
       -0.090153456 0.24278918 0.26297346 -0.06337154

block1.0.bias f4 [10]
000000 cf 30 b7 be a6 d8 df be 60 f5 61 bd 57 5b 87 be
       -0.35779426 -0.43719977 -0.05516565 -0.26436874
000010 98 4d 1a be 87 21 32 be 7b e3 09 be 4f bc bb bc
       -0.15068662 -0.17395602 -0.13465683 -0.022916941
000020 1e 00 11 be 60 4c 8f be
       -0.14160201 -0.27987957

block1.2.weight f4 [10, 10, 3, 3]
000000 c3 68 42 bd da 2d 00 be 4f e8 70 3d 26 0e 80 bc
       -0.04746319 -0.12517491 0.058815297 -0.015631747
000010 09 45 28 bd 97 33 6c 3d 93 8b 7c bd fd 68 b2 bd
       -0.041081462 0.057666387 -0.061656546 -0.08711431
000020 21 dc 7b bd 5c 59 3e be 5c ed 0d be 7b 6a b1 3c
       -0.06148923 -0.18588775 -0.13860077 0.02165722
000030 77 82 0d be ea bd 21 be f8 3d 32 bb a7 75 d4 bd
       -0.138193 -0.15795103 -0.002719758 -0.10374003
000040 11 57 7a bd ab 96 21 3d 5a 98 a4 3d c7 35 67 3d
       -0.06111819 0.03945033 0.08036871 0.05644777
000050 a6 3e 84 bd 39 66 bc bd bd ed a9 3c 26 1f 9a bd
       -0.06457262 -0.09199185 0.020743245 -0.07525472
000060 1b 7e 43 bd c8 cb e0 3b 9d 56 5c bd 6e 57 15 bd
       -0.047727685 0.00686023 -0.05379354 -0.036460333
000070 8d ef 1d be 46 31 4b bc 0f 74 a9 3c db 3e 16 be
       -0.15423413 -0.012401884 0.020685224 -0.14672415
000080 41 59 ec bd ae b8 8d bd 77 b9 f7 bc b6 11 de 3a
       -0.11540461 -0.069199905 -0.030239804 0.0016942534
000090 f7 58 18 3e ed cb 05 bd 40 db d2 3b 91 73 0a 3c
       0.14877687 -0.032665182 0.006434828 0.008450405
0000a0 97 76 0c bd 63 25 49 3d 76 b9 b2 3d c8 f6 f1 3d
       -0.034292784 0.04910792 0.0872678 0.11814648
0000b0 94 89 39 bb 83 9f cf bd 3b 85 9f 3c 6d 45 ae bb
       -0.0028310763 -0.10137846 0.019472709 -0.005318335
0000c0 32 1e d4 bc 38 d3 75 bd d7 39 c7 bd a9 a7 ba bd
       -0.025893304 -0.060015887 -0.09727829 -0.0911401
0000d0 83 01 c7 bd 6c 1f be 3d 8d c9 09 be ee 1d f3 bd
       -0.09717085 0.09283337 -0.13455792 -0.11870943
0000e0 d0 71 37 3d 40 5c 04 be 5e 86 8f bd e5 e8 c7 bd
       0.044786274 -0.12925816 -0.070080504 -0.09761218
0000f0 de d6 c1 bd 29 20 2e bc 8a 4c 02 be 8c a0 30 3d
       -0.09464811 -0.010627785 -0.1272451 0.04312186
000100 48 9d 1b 3e df a7 81 3e da d7 c0 3d 8c 22 19 3e
       0.15196717 0.25323388 0.094161704 0.14954585
000110 de 88 76 3e 93 9e f9 3d 99 65 36 3e 19 86 6d 3e
       0.24075648 0.12188449 0.17812194 0.23195685
000120 d2 76 b6 3d 2e cf 80 3a 4c fb b2 bd 36 a3 74 bd
       0.08909382 0.0009827369 -0.08739337 -0.059725963
000130 b8 22 6b 3d 96 4c b1 bc e5 be 16 3d f4 78 d6 3d
       0.057406157 -0.021642964 0.036803145 0.10472289
000140 65 7f 48 bd 4e 9a 06 bd 4a 76 02 3c df 42 94 3d
       -0.048949618 -0.032862 0.007962773 0.07239317
000150 51 6c 28 3d a5 72 12 bd f4 f9 da 3d 84 72 44 3c
       0.041118924 -0.035753865 0.10692206 0.011990193
000160 84 d6 b3 bd 1f a8 1c 3e 00 fa 8a bd be f2 5a 3d
       -0.0878115 0.15298508 -0.06785965 0.053454153
000170 65 b6 de 3d 00 0c 0e 3c 8e de cb bd ad e7 b2 3c
       0.10874633 0.008669853 -0.09954558 0.021838987
000180 96 e2 74 3c 44 ac 00 bc e8 1d 4a bc 08 6d 8e 3d
       0.0149466 -0.007853571 -0.012336232 0.0695439
000190 5c 56 11 bd 72 48 bf bc 82 26 25 bd d1 e7 f2 3c
       -0.03548275 -0.023349974 -0.040319927 0.029651554
0001a0 4f 7b 0c bd a5 80 91 bd 8b 34 17 3d 55 bb 07 be
       -0.034297284 -0.07104615 0.036915343 -0.13255055
0001b0 0a 8a a3 bd 85 fa 64 3d 53 94 87 bd 2b b0 02 3b
       -0.07985313 0.055902977 -0.066200875 0.001994143
0001c0 ea 03 8f bd 81 55 1a bd 1e 31 b4 3c cb 94 a6 bd
       -0.069831684 -0.0376792 0.021996077 -0.08133849
0001d0 a0 08 91 3d 24 cc f8 bd b7 3c 22 3c 8b 61 dc bd
       0.07081723 -0.12148312 0.009902171 -0.10760792
0001e0 f3 ef 04 be fd 12 af bd 2b 7c 18 be 48 8b aa 3c
       -0.12982158 -0.085485436 -0.14891116 0.020818368
0001f0 14 6e 05 be c7 0d 1c be d2 93 d8 3b 36 b3 7d 3c
       -0.13030273 -0.1523963 0.0066094184 0.015484622
000200 a9 3f 05 3d 90 2f 15 3e fb ac b9 3d ab f6 95 3d
       0.032531414 0.14568925 0.090661965 0.07322439
000210 9c e4 de 3d ec 5a 85 3d a3 1b 02 3e 88 a6 88 3d
       0.108834475 0.065114826 0.12705855 0.06672388
000220 b1 18 b2 3d 6d 53 22 3d 60 6d d6 3d cb d3 2b bd
       0.08696116 0.039630342 0.104700804 -0.04195003
000230 b4 e2 83 3d 91 be 8c 3d 68 36 c2 bd ea 47 11 3d
       0.064397246 0.06872285 -0.094830334 0.035468973
000240 49 2e ea 3b f1 a1 03 bd cd 55 67 bc 86 f7 18 bc
       0.007146631 -0.03213686 -0.014119578 -0.009336358
000250 fd ce a5 3c 63 d2 97 bd 28 9a 98 bd 23 73 8d 3d
       0.020240301 -0.07413175 -0.07451278 0.06906726
000260 be a3 48 bd 92 aa a8 3d fa 01 50 bd 7c df f5 3d
       -0.04898428 0.08235659 -0.050783135 0.12005517
000270 e1 23 6f bd ae 24 6a 3d be d8 d4 3d de 36 07 3e
       -0.058383826 0.057163887 0.10392903 0.13204524
000280 4d 44 07 3e 36 da cc 3d 55 5c 33 3c 14 a9 86 3d
       0.13209648 0.10002558 0.010947307 0.06575218
000290 36 ce ff 3c a3 7d 58 3d 48 b1 ee bc 1a 9e b6 3d
       0.031226259 0.05285419 -0.029137269 0.08916874
0002a0 10 6a 96 bd 45 b1 69 bd 17 36 a5 3c fb 79 3e 3e
       -0.073444486 -0.057053823 0.020167394 0.1860122
0002b0 91 b6 9b 3d bc c9 8a 3d 57 66 24 3e d1 23 e9 3d
       0.07603181 0.06776759 0.16054665 0.113837846
0002c0 84 1c 97 3d 43 f1 fb 3d 73 1a 94 3c ff d7 98 3d
       0.07378486 0.123018764 0.018079018 0.07463073
0002d0 dd 07 f2 3d 5b 2d d1 3d 47 d8 92 3d 9c 31 70 3d
       0.11817906 0.10213729 0.07170158 0.05864106
0002e0 57 95 c4 38 33 96 31 bd 1a e4 f8 3d 11 54 03 3e
       9.373825e-05 -0.04335613 0.12152882 0.12825038
0002f0 c2 89 58 bd c3 1a dc 3d 8b 6a 74 bd 16 08 07 bd
       -0.05286575 0.10747292 -0.05967192 -0.032966696
000300 03 d0 f6 3c 8a 6e b1 3b b2 34 b7 3d 25 2d b3 3d
       0.030128485 0.0054147886 0.08945598 0.08748845
000310 6b db f2 3d ad 21 8d 3d 30 d5 27 3c c2 ad 84 bd
       0.11858257 0.06891189 0.010243699 -0.06478454
000320 19 41 18 3c d9 6e 89 bd b2 e0 43 bd fb a4 cb 3c
       0.009292864 -0.06710596 -0.047821708 0.024858942
000330 a4 99 fd 3c 29 f2 33 3c 90 58 17 3c a1 ac eb bc
       0.03095705 0.010983028 0.009237424 -0.02876884
000340 1b 89 f5 3d cd 41 14 3d f1 bd aa 3d d7 19 96 3c
       0.119890414 0.036195565 0.0833701 0.018322868
000350 7a fb c0 3d ea d5 25 bd 9a c2 f5 3c a8 11 a8 bd
       0.09422965 -0.040487207 0.03000002 -0.08206493
000360 33 d0 c2 bc ed 53 46 3d 6d 02 eb bd 98 fd b5 3d
       -0.023780918 0.04841988 -0.11475072 0.0888626
000370 4f 56 fc 3c 7b 71 59 bc a8 3f 8c bd 8d 2d 27 bd
       0.030802874 -0.013271685 -0.06848079 -0.040814925
000380 0d 30 1e bd 03 f2 ee bc 11 7c a7 bd 27 bc 63 b7
       -0.038620044 -0.029168135 -0.08177961 -1.3574062e-05
000390 1d de f9 bb ea 14 44 3c 08 68 18 3d 9d d4 3b 3d
       -0.007625355 0.011967877 0.037208587 0.04585706
0003a0 3b 80 9e bd d6 99 3a bd 6b 79 d6 bd 7e 34 f4 bd
       -0.07739302 -0.045556866 -0.104723774 -0.119240746
0003b0 50 6d 42 bd bc 20 5d 3d e2 d0 05 bc ec 7b 8f 3d
       -0.04746753 0.053986296 -0.008167477 0.07006058
0003c0 48 5e bd 3c e5 fd b1 ba 55 72 9b 3d b8 c0 ca bd
       0.023116246 -0.0013579695 0.075901665 -0.099000394
0003d0 51 75 8e bd 3e 23 22 3d ea 9c aa bd 02 b7 6d 3c
       -0.0695597 0.03958439 -0.0833071 0.0145089645
0003e0 c6 ca 16 bc bc 87 5e bd ea 56 55 3c e8 01 60 bd
       -0.009203618 -0.054328665 0.01302121 -0.054689318
0003f0 6d 77 d2 3c 8e 8d e8 bc 92 ee 05 3a 28 1f c4 bd
       0.025691712 -0.028387811 0.0005109097 -0.09576255

block1.2.bias f4 [10]
000000 1e aa ae 3e 35 32 a3 bc 84 da ce bd 0d a0 a8 3c
       0.34114164 -0.019921402 -0.10100272 0.02058413
000010 95 dc d7 bb 9b 32 59 bd bf 52 9b be c4 f5 78 3d
       -0.0065875747 -0.053026777 -0.30336568 0.060781255
000020 72 83 83 bc d2 a3 49 3e
       -0.016053889 0.19691399

block2.0.weight f4 [10, 10, 3, 3]
000000 88 b6 48 bd 9c 61 29 be f7 76 04 be 69 48 c1 3c
       -0.0490022 -0.16541141 -0.12936006 0.023594098
000010 1b 25 94 bd ef 0a fc bd 23 9f 09 be ff 33 e3 bd
       -0.0723364 -0.12306773 -0.13439612 -0.11093902
000020 48 e1 35 bd fe 9c 05 bd b7 11 74 bc 25 03 b5 bd
       -0.044404298 -0.032620423 -0.014896802 -0.088384904
000030 27 d0 b7 bd 5c 72 8a 3d f7 f2 5e 3d 31 6a 3f 3d
       -0.08975249 0.067600936 0.054430928 0.04673213
000040 fe ce d4 3c b3 6f 9d bd e2 ac 42 bc cf 98 3f 3d
       0.025977608 -0.076873206 -0.011882039 0.04677659
000050 cc 7c b6 3d 55 e3 c3 3d ca 4c 29 3e 09 c6 94 3d
       0.08910522 0.095648445 0.16533199 0.07264335
000060 db ba 43 3c cc 32 0f 3e cd 97 87 ba 2f 48 c2 3d
       0.011946405 0.13984221 -0.0010344923 0.09486424
000070 55 32 14 3d 2e 8e a6 bd 00 9a 87 3b b7 a0 0e bd
       0.036180813 -0.081325874 0.0041382313 -0.03482124
000080 0f b6 39 3c 0b aa 0d bd 6e 4b fe 3b c6 0e 26 3d
       0.01133491 -0.034585994 0.0077604568 0.040541433
000090 71 71 cd bb 9e 16 4b 3d 6d e0 9b 3d 1f f8 7f 3c
       -0.006269627 0.049582116 0.07611165 0.0156231215
0000a0 51 c8 4a bd 77 53 3c 3c 77 87 69 bd 18 e4 3c 3d
       -0.049507443 0.011494509 -0.057013955 0.046115965
0000b0 bd 30 8c 3c 09 a6 90 bd 04 5c 95 3d e1 0f e5 3d
       0.017113084 -0.07062919 0.07292941 0.11184669
0000c0 c9 d5 08 3d f7 a2 8f 3d da 74 8c 3d 89 f2 2e 3e
       0.033407006 0.07013505 0.06858225 0.17084707
0000d0 54 c7 2c 3e aa 0f 58 3d 01 20 05 be 17 9f 04 3d
       0.16872913 0.052749313 -0.1300049 0.032378282
0000e0 ff 99 e2 3c c1 87 be bd c1 f8 70 3c c4 d0 f0 bd
       0.027661322 -0.09303237 0.014707745 -0.11758569
0000f0 06 14 5d bc 28 2f 43 3d 11 13 75 3c b2 65 62 bd
       -0.0134935435 0.047652394 0.014958159 -0.055272765
000100 ce f4 80 3d a4 ca ab 3d ae a6 74 3d b5 0c 70 bc
       0.06296693 0.0838826 0.05972927 -0.014651467
000110 fd 70 7f 3b e9 7b d5 3d 97 8c 02 3d 03 17 f2 3d
       0.0038977258 0.104240246 0.03187236 0.118207954
000120 e9 2a 8f bd 13 f5 ec 3c b8 5f eb bd 32 2e 77 3d
       -0.06990606 0.028925454 -0.11492866 0.06034679
000130 ec 0f 54 3d 50 e0 b0 bd cf d7 39 bd cc 6a 07 3d
       0.051772997 -0.08636534 -0.045371827 0.033060834
000140 6f 7c 4e bc 67 df 8f bd cb 6e 96 bd ab bb 28 bd
       -0.0126029095 -0.070250325 -0.07345351 -0.0411946
000150 a9 0b 83 bd d2 65 2a 3c e8 a4 b0 bd 9b b8 c3 bd
       -0.063987084 0.010400252 -0.08625203 -0.09556695
000160 79 0d 13 3d ba 16 3a bd eb db b5 bc 2f 47 6e bc
       0.03590152 -0.04543183 -0.022199592 -0.014543339
000170 4a 7b ec 3d fb 1c 4b 3b df 5b d7 3d f1 0a fd bc
       0.11546953 0.0030992616 0.1051557 -0.030889006
000180 aa 8b 0a 3d 24 f2 e1 3d 58 76 a6 bb cb e5 e4 3d
       0.0338246 0.11032513 -0.0050800256 0.11176642
000190 cb d5 bb bc f9 9f de 3c 57 2c 23 3d 6f ae 7d bc
       -0.022929093 0.02717589 0.039837208 -0.015483483
0001a0 2e dc 7f 3d 84 0b 7c bd 5a 52 52 3c 8c 7f 77 3d
       0.06246584 -0.06153442 0.012837017 0.060424373
0001b0 49 80 ee bd c1 14 53 bd 0d 8a 1b bd 87 9b ef bd
       -0.11645562 -0.051533464 -0.037973452 -0.11699586
0001c0 6a 43 a0 bd da db a6 ba 1b 71 4b 3d 78 3a 25 bd
       -0.07825358 -0.0012730316 0.049668413 -0.040338963
0001d0 f4 a4 e3 bd e1 a3 6e b9 b1 44 73 3d 0b 17 b7 3d
       -0.11115447 -0.00022758498 0.05939168 0.08939942
0001e0 22 10 19 bd 83 c3 92 3c 80 db 06 bd ec 80 bc 3c
       -0.0373689 0.017915493 -0.032924175 0.023010693
0001f0 d3 01 ed 3d 0e bb a4 3a d8 9e 5f bd 87 7c d5 bd
       0.115726136 0.0012567954 -0.054594845 -0.10424142
000200 50 60 ce 3d eb c6 86 3d 8a 95 35 3d 55 48 03 3d
       0.10076964 0.06580909 0.044332065 0.032051403
000210 c3 ad 71 bd 91 2a 95 3d 9d d2 8e bd be 22 05 be
       -0.059003603 0.072835095 -0.06973765 -0.13001534
000220 71 89 dd bd f6 b5 00 be 7d 65 81 3c 22 e0 4f 3d
       -0.108172305 -0.12569413 0.015795464 0.05075086
000230 1f 77 ed bd c9 dc 43 bc ea c8 50 bd 3b c6 51 bc
       -0.11594986 -0.011954495 -0.050972857 -0.0128036095
000240 95 b5 34 bd d5 75 08 3e da 8f 04 bd e9 c6 8e bd
       -0.044118483 0.133262 -0.03236375 -0.06971533
000250 10 03 4f bc ec 49 7a 3b 1c 1a d4 bd 23 9d 69 bd
       -0.0126350075 0.0038191034 -0.103565425 -0.057034623
000260 47 33 a3 3d 8e 08 90 bd 0b 57 a2 bd ee 3f 57 3d
       0.07968765 -0.07032882 -0.079267584 0.052551202
000270 12 3a a7 ba ce 0b 06 bd 84 d8 32 bd 4f 0b 38 3b
       -0.0012758395 -0.0327261 -0.043663517 0.0028082912
000280 98 ae d8 3d 9b 36 a3 bc e8 23 90 3d 75 25 ba bc
       0.10580176 -0.019923499 0.070380986 -0.022722939
000290 6a a0 a7 3d 8f 2e 50 3c 2c 18 9f 3d 8d ae ce 3d
       0.081848934 0.012706413 0.07768282 0.10091887
0002a0 90 e8 ad bd 83 75 af 3d 1e d8 b0 3d e9 d0 92 bd
       -0.084916234 0.085673355 0.08634971 -0.07168753
0002b0 4b 24 8c 3d fe 9c 89 bd 7e 41 94 3c 52 85 1e bd
       0.0684286 -0.06719397 0.018097635 -0.038701363
0002c0 ac b5 6e 3d b8 62 1c bd eb 9c 47 3d d0 6f dd 3d
       0.058278725 -0.038180083 0.048733633 0.10812342
0002d0 54 1a 38 bd a9 ec 8d 3d f1 e2 d3 3d 04 76 97 bc
       -0.044946983 0.06929905 0.1034602 -0.018488891
0002e0 68 7b 80 bc 62 9f 40 3b f1 49 c9 3d e7 51 ae 3d
       -0.015683845 0.0029391875 0.09828556 0.085117154
0002f0 bd b4 31 3d c1 5c 2d be 47 b2 0f bd 52 68 26 be
       0.043385256 -0.16929914 -0.035082128 -0.16250733
000300 d1 e6 a8 bd 50 f2 02 be 87 e9 32 be 0f c3 bb 3b
       -0.0824715 -0.12787747 -0.17471896 0.00573004
000310 f6 38 a6 bc fa 52 0b be 4b c6 bf bd f1 20 4d 3d
       -0.020290833 -0.13605872 -0.09363993 0.050080243
000320 51 1e fa bd 26 1d 09 be a1 ea 8f bd 23 0b 80 3d
       -0.12212814 -0.13390025 -0.07027174 0.06252124
000330 be 2a ca 3c 12 f4 3d 3d 39 81 0f 3d a4 25 67 bc
       0.024678584 0.04637534 0.035035346 -0.014108095
000340 b3 51 a5 bd b7 6a 7a 3d 81 1a cf 3d 60 b1 44 3d
       -0.080722235 0.061136927 0.10112477 0.04802072
000350 e8 91 81 bd 3d f5 86 39 c3 a2 cb 3d d9 90 2d bd
       -0.063266575 0.00025741188 0.09943154 -0.042374466
000360 3e c0 13 3c 3a 55 35 3d 01 22 f3 bc 24 56 10 3d
       0.009018002 0.04427073 -0.0296793 0.0352384
000370 93 2c 9f 3d 75 37 a5 3d e3 1e 0b 3d 57 97 d7 3d
       0.07772174 0.08067218 0.033965003 0.10526913
000380 81 8d bf bd b2 db e2 ba 30 8c 17 be 62 f1 ef bc
       -0.093531616 -0.0017307906 -0.14799571 -0.029289905
000390 b5 50 2f be 2e 2b ee bd 28 33 cd 3c 86 75 13 be
       -0.17120631 -0.116293296 0.025048807 -0.144003
0003a0 06 37 40 3c 32 fa bb bd 3f ae ad bd fa 7d d0 bd
       0.011731869 -0.0917858 -0.084805004 -0.10180278
0003b0 10 5d c0 bd d4 96 99 3c 33 08 3c bd a3 50 27 bd
       -0.0939275 0.018748678 -0.045906257 -0.040848386
0003c0 17 91 79 bc 65 6c 13 bd 6c 56 05 bc c9 6f 5d 3d
       -0.015232346 -0.035992045 -0.00813828 0.054061685
0003d0 ec 25 b7 bc 49 f2 f6 bc 75 64 87 bd 48 3c 22 bd
       -0.02235695 -0.030144827 -0.066109575 -0.03960827
0003e0 9a 71 97 3d 80 26 af 3d 95 69 18 3d c5 b9 a1 3d
       0.07394715 0.08552265 0.037210066 0.07896761
0003f0 9e f2 87 bd 8e 3f c2 bd 2d db 0a 3d 6a bc 0d 3d
       -0.066380724 -0.09484778 0.03390043 0.034603514

block2.0.bias f4 [10]
000000 52 47 16 be 23 15 e3 3c 33 09 7c 3e 6a f6 0c be
       -0.14675644 0.02772004 0.24612884 -0.13765875
000010 7b 2c 5b bc 5e fd 31 bd 64 28 29 be ca 1c 9f 3d
       -0.013377304 -0.04345452 -0.16519314 0.07769163
000020 2a 05 43 3e 73 92 56 bc
       0.19044939 -0.01309644

block2.2.weight f4 [10, 10, 3, 3]
000000 5b fd 80 bc 6f 00 66 3d 69 fd a4 bd 77 2d d1 bd
       -0.01574581 0.056152757 -0.08056147 -0.1021375
000010 f8 cd f3 bd e2 9d cf bd 15 17 1a be 94 ca 1f be
       -0.1190452 -0.10137536 -0.15047868 -0.15604621
000020 33 1f a3 bc 20 f8 e3 bc 5d 52 a4 3d 3f cb b5 bc
       -0.019912338 -0.027828276 0.08023522 -0.022191642
000030 09 38 cc 3d df c4 67 3d 18 89 94 ba d9 fc c8 3d
       0.09971625 0.056584235 -0.0011332361 0.09813852
000040 90 33 0e bd 06 e6 a0 3c 19 fe 02 3d b6 80 b9 3c
       -0.034717143 0.019640934 0.031980608 0.022644382
000050 e2 ec bd bd c8 cf 71 3d 18 eb bc bb 93 d6 c6 3c
       -0.092736974 0.059036046 -0.00576533 0.024272239
000060 fe a2 31 3d 72 7a d1 3d 44 38 44 bd 13 43 08 3d
       0.043368332 0.10228433 -0.04790522 0.033267092
000070 a0 2c 21 bd 9b 1f 14 3e 31 34 63 3d 4f 35 50 3d
       -0.0393492 0.14465182 0.055469695 0.05083209
000080 81 6d 1b bd f0 61 f4 3c 6d cf 82 3d 09 81 ae bb
       -0.037946228 0.029831856 0.063872196 -0.005325441
000090 c6 44 95 3c 76 e7 c2 bd 69 46 57 3c 74 f3 c6 bc
       0.01822127 -0.09516804 0.013139346 -0.02428601
0000a0 07 b4 56 3c cf 78 c1 3d 4f 81 8b bc 17 f9 d1 3d
       0.013104445 0.094468705 -0.017029433 0.10252588
0000b0 45 64 e9 bc 1b d6 ef 3d a9 cd f8 3d 91 46 64 bd
       -0.028490195 0.11710759 0.121486016 -0.05573136
0000c0 70 7a 05 3d e4 e3 db 3d ae 74 89 3d df 62 c4 3d
       0.03258747 0.10736826 0.06711708 0.09589171
0000d0 e7 5e 01 bd 18 f4 a7 3d 9e b2 c6 3d 5d 95 1d 3e
       -0.031584647 0.08200854 0.09702037 0.15389009
0000e0 46 72 57 3d 95 a9 11 3e 54 88 a9 3d a9 4f 44 3e
       0.052599214 0.14224847 0.08277956 0.19171013
0000f0 87 97 3c bd 94 bc 5c 3c 9b e9 19 3e fd a1 3b bd
       -0.046042945 0.013472695 0.1503052 -0.04580878
000100 45 9e a2 bd ba e0 35 bd 7d 80 2c 3d 03 b2 30 3d
       -0.07940344 -0.04440377 0.042114723 0.043138515
000110 0f c0 58 bd d3 e6 ae bd e5 e1 99 3d 30 62 a3 bc
       -0.052917536 -0.0854012 0.07513789 -0.01994428
000120 6f c9 12 bd c4 4c bf 3c da 95 31 3d 63 0c 8c 3d
       -0.035836633 0.023352034 0.0433558 0.068383
000130 db 11 c9 3d 8a ae 0a 3e ab 91 af 3d 24 af 8b 3d
       0.09817859 0.13543144 0.08572706 0.06820515
000140 d9 f8 0d 3e 69 b4 cf bc 83 2e 93 3c d0 22 b1 bd
       0.13864459 -0.025354581 0.017966514 -0.08649218
000150 ac 7a 7a 3d 64 8b 39 bd 88 cd 24 bd 26 0c a8 3d
       0.061152145 -0.04529895 -0.040235072 0.08205442
000160 1a d9 f1 3b 0c 27 d8 3d 9e 42 ba 3d 91 44 ce 3d
       0.007380617 0.105543226 0.090947375 0.10071672
000170 13 0a 1d 3d 6a 66 bd 3d 6f 8d c2 3d 68 a7 20 3d
       0.038339686 0.092480496 0.094996326 0.03922215
000180 45 fd aa 3d de 78 8e bc 08 3b 8d 3d a6 46 c5 bd
       0.083490886 -0.017391618 0.06896025 -0.09632616
000190 2c fc 6a 3c 18 89 5f 3d ca 41 b8 bd 51 ed c3 bd
       0.014342349 0.054574102 -0.08996923 -0.09566749
0001a0 e9 36 98 bd 68 7e c8 3c 39 89 3b 3d 88 2f 70 3d
       -0.07432348 0.024474338 0.045785163 0.05863908
0001b0 0c 16 9b bd e1 37 76 bd 32 35 37 3c ec d8 cf bd
       -0.075725645 -0.060111884 0.011182116 -0.101487964
0001c0 dc cd c3 3d 90 3d be bd b0 24 cb bd 64 ac b2 3d
       0.09560749 -0.09289086 -0.09919107 0.08724287
0001d0 9c 3a ee bc ea 9e eb 3d 65 5b d2 3d d9 75 bf 3c
       -0.029080682 0.1150492 0.102713384 0.023371624
0001e0 25 e9 34 bc e6 f4 c7 bc 4a b4 50 3d 2c 8a 06 3e
       -0.011041914 -0.024408769 0.050953187 0.13138646
0001f0 52 df d2 3b 39 5f 00 bd 86 58 c4 3d 80 f1 00 bd
       0.0064353133 -0.03134081 0.09587197 -0.031480312
000200 93 56 99 bd 1b c3 7a 3c 73 c6 a8 3d 23 32 44 3d
       -0.07487216 0.015305306 0.08240976 0.047899377
000210 ae b0 1c bd 2d bd a2 3b a2 58 89 3b d5 7e 57 3d
       -0.038254432 0.004966399 0.004191474 0.05261119
000220 30 5f 34 3d b9 6e 6a 3d d2 3c 5e 3d 3c 5a f9 3c
       0.04403609 0.0572345 0.05425722 0.030438535
000230 53 88 29 bc e2 59 c3 3d dd b0 9e 3b ea c9 9f bd
       -0.010347444 0.09538628 0.004842861 -0.07802184
000240 25 8e 1f 3d b6 0e 72 bc 43 d0 74 bd b3 c5 ec 3d
       0.03895392 -0.014774015 -0.059768926 0.11561146
000250 1a 16 1b 3c 04 59 65 bd f5 e1 29 3d db 1f c1 3d
       0.009465719 -0.055993095 0.041475255 0.09429904
000260 65 f8 e5 bd 06 74 2a bc 9e 14 b9 3b 38 21 97 bd
       -0.11229018 -0.010403639 0.0056482097 -0.07379383
000270 9f e6 7e bc a2 2e 2d bc a4 28 91 bd a3 93 d0 bd
       -0.015557914 -0.0105702 -0.0708783 -0.101844095
000280 3f 22 b8 3d 90 dc 86 3d d5 2c ac 3d 04 b2 02 3c
       0.08990907 0.06585038 0.084069885 0.007977013
000290 d0 3d d7 bd 82 03 05 b8 97 ea 17 3c d2 21 2a bc
       -0.10509837 -3.1712938e-05 0.009272239 -0.01038404
0002a0 df 92 13 bc ca f8 7e bb 46 12 26 bd 6c d1 85 bc
       -0.009007185 -0.0038905614 -0.04054477 -0.016335212
0002b0 8e 76 89 bd a1 a9 30 bd fe f0 9d bd 8e d0 a0 bd
       -0.06712066 -0.04313052 -0.07711981 -0.07852279
0002c0 6f 25 cf bd df 18 1a 3d 4a 67 a2 3d 51 77 96 3d
       -0.10114562 0.037621375 0.07929857 0.073469765
0002d0 24 07 4a be 5c 90 06 3c 41 1f 3a 3e 52 f2 20 be
       -0.19729286 0.008213129 0.18175985 -0.15717438
0002e0 ca d7 00 be c8 5c 1f 3e 24 0a 22 be d8 6e 01 bd
       -0.12582317 0.15562737 -0.15824181 -0.03159985
0002f0 fd 32 24 3d 45 ac 38 3c 5b 72 4f 3d 2f de 0f 3b
       0.04008769 0.011271541 0.050646167 0.00219525
000300 ee d2 61 bd 83 fb 83 3d 5f c5 fb 3c 9f e6 ec 3c
       -0.0551328 0.064444564 0.030733762 0.028918562
000310 4d 0d 24 3d 48 8d 6c 3d 21 a5 dd 3d 0a 2f 23 3d
       0.040051747 0.057751924 0.108225115 0.03983978
000320 cd c7 93 bd de bd 09 3b 0c 76 5f 3d ea 52 1b 3c
       -0.07215843 0.002101771 0.054555938 0.0094802175
000330 92 09 17 3c c4 7f 67 bd 49 fd b6 3c 63 4f 02 be
       0.00921859 -0.05651833 0.022337573 -0.12725596
000340 73 2e 62 3d 00 0d b8 3d 72 5d fd bd 67 26 7e 3d
       0.05522008 0.089868546 -0.12371339 0.062048342
000350 db fa e2 3b f0 7d 2a be c4 4b f8 3c 01 c1 88 bc
       0.006926877 -0.16649604 0.030309565 -0.016693594
000360 80 6e 21 bd 9c 15 a7 3c 08 db 17 bd 90 5e ba 3b
       -0.03941202 0.020396046 -0.03707412 0.0056875423
000370 3c af f8 bb 1c 6a 20 3c 6a 0c 15 3c e0 64 fd 3a
       -0.007589249 0.009790923 0.009097198 0.0019332431
000380 71 7d b1 bd 6a ce 24 bd de a4 98 3c 74 de 32 3b
       -0.08666504 -0.040235914 0.018633302 0.0027293237
000390 40 24 ee 3c cf ab 3c 3d 60 1d 48 bd c2 34 c4 bd
       0.02907002 0.046062287 -0.04885614 -0.09580375
0003a0 e6 01 2e bd 19 54 e0 3b a0 05 2a 3d 0d 7c 06 3c
       -0.04248228 0.0068459627 0.04150927 0.008208287
0003b0 df f6 33 3e 9c fe c8 3d a8 38 25 3e 6a e6 2b 3e
       0.17574643 0.09814188 0.16134894 0.16787115
0003c0 3c 73 0c bd f0 60 b3 3d 87 4c 25 3c 5a ee 4f 3d
       -0.034289584 0.08758724 0.010089046 0.05076442
0003d0 8f e2 b1 bd 5d f1 0d bd 11 ac 26 bb 8f b5 a6 bd
       -0.08685791 -0.03465401 -0.002543215 -0.08140098
0003e0 e4 94 1b be b6 a2 5c bd 18 e1 13 3d b2 5e f9 bd
       -0.15193516 -0.05386611 0.036103338 -0.12176265
0003f0 7a 44 81 bd f3 ba 2f bd d1 61 fb bd 30 17 09 bd
       -0.06311889 -0.042902898 -0.122745164 -0.03346938

block2.2.bias f4 [10]
000000 b4 7e 42 be fe c4 a3 be 66 e6 08 3e 3c ea 69 bd
       -0.18993646 -0.3198623 0.1336914 -0.05710815
000010 d3 d9 39 3e f5 aa 92 3d 6e 54 8e bd fc 90 7d 3e
       0.181495 0.07161514 -0.069496974 0.24762338
000020 20 37 6c bd 67 e5 9b be
       -0.05766976 -0.30448458

classifier.1.weight f4 [2, 38440]
000000 70 04 41 3c b8 c7 45 3c d0 24 fd 3b d0 f2 76 3b
       0.011780843 0.012071542 0.0077253357 0.0037681349
000010 bf 04 0c 3c ab ea 99 3b e7 0c a4 3b c9 30 ea 3b
       0.008546053 0.004697164 0.005006421 0.007146929
000020 0b 64 54 3c 96 78 2f 3b f0 c3 9b 3b 00 52 db 3b
       0.012963305 0.0026774756 0.004753582 0.006693125
000030 66 e4 d5 3b 0b ae 47 3c 23 60 62 3c c0 70 ce 3b
       0.0065274714 0.012187491 0.013816866 0.006300062
000040 ec ae 2f 3c 29 7b 4e 3c be 53 63 3c 4a 88 08 3c
       0.010722857 0.012602606 0.013874946 0.008333275
000050 08 af 11 3c d0 cb c6 3b 2f a1 8d 3c 2e f8 1b 3c
       0.008891828 0.006066777 0.017288772 0.00951962
000060 47 1d f9 3b 3e dd 3e 3c 14 e9 0b 3c 85 f4 2d 39
       0.007602367 0.011649428 0.008539457 0.00016589656
000070 69 d8 f8 3a 7b 8d dc bb 8b 42 89 3b 91 59 74 3b
       0.0018985394 -0.006730733 0.0041888407 0.003728483
000080 d3 b3 f2 3b d4 4f c6 3b 56 45 c2 3b 30 73 17 3c
       0.0074066906 0.0060519967 0.0059286756 0.009243771
000090 f5 c2 89 3b 01 c8 2a 3c 84 f5 66 3c ae b3 25 3c
       0.004204149 0.010423661 0.014096621 0.01011364
0000a0 2e fa 79 3c 28 64 3a 3c 15 3e ff 3b cc ad 28 3c
       0.015257401 0.011376418 0.007789383 0.010295343
0000b0 ca 38 08 3c 85 d6 7e 3b cf 88 00 3c 69 f3 71 3c
       0.008314321 0.0038885188 0.007845118 0.014767506
0000c0 ca d9 34 3c 8f 17 68 3c a7 67 fa 3b 8f f5 10 3c
       0.011038253 0.014165773 0.007641751 0.008847608
0000d0 1e d3 89 3b de 75 48 3c 6c b2 e9 3b 08 e0 13 3c
       0.0042060753 0.012235133 0.0071318652 0.009025581
0000e0 65 da d3 3b d3 e8 c7 3b b9 df a0 3b e6 13 e7 3b
       0.0064652436 0.006100753 0.0049094823 0.0070519326
0000f0 17 41 03 3c 93 ab 40 3c 1a d2 be 3b a2 0a 38 3c
       0.008011124 0.0117596565 0.005823386 0.011233004
000100 57 bb c5 3b c6 e0 a2 3a 50 03 53 3b 74 d1 06 3b
       0.0060342955 0.0012426607 0.003219802 0.002057162
000110 be 44 fc b9 93 22 09 3c af 35 29 3c 44 2c e8 3b
       -0.00048116402 0.00837006 0.010327741 0.007085355
000120 76 b9 e7 3b af c2 45 3a 0b d5 95 3b e3 aa b9 3b
       0.007071669 0.0007543964 0.004572516 0.0056661232
000130 f3 86 40 3b bc e9 c6 ba b4 9c 72 3a 0d 88 d5 3b
       0.002937731 -0.001517586 0.0009254918 0.0065164627
000140 22 62 d5 3b 03 3d 4f 3c 51 e9 04 3c 4f 25 ee b9
       0.0065119425 0.012648824 0.008112268 -0.00045422695
000150 5e e3 f1 ba 5a d6 96 bb 20 0d b3 bb 7a 10 6e bc
       -0.0018454602 -0.0046031894 -0.005464211 -0.0145302955
000160 59 6f f7 bb ef 15 4c bc 12 a2 04 bc b7 d0 42 bb
       -0.0075511155 -0.012456401 -0.008095281 -0.0029726455
000170 c0 f7 77 bc 51 74 d0 bb 62 d9 1c bb 62 be e0 bb
       -0.015134752 -0.0063615222 -0.0023933281 -0.006858633
000180 9d df 56 bc b1 40 17 bc a3 5f 2e bc 46 27 40 bc
       -0.013114837 -0.009231732 -0.010642919 -0.0117281135
000190 1a 5e ac ba 0c 69 8d 3b 11 43 2e 3b 9c ae 1d 39
       -0.0013150603 0.004315501 0.0026590268 0.00015037734
0001a0 74 e8 53 3b 66 66 25 3c 0c 79 0e 3c a2 a5 15 3c
       0.0032334598 0.0100952145 0.008695852 0.009133728
0001b0 cf ae 39 3b 64 d9 d5 3b fc 6b 3b 3c 57 32 10 3c
       0.0028332954 0.006526159 0.01143932 0.008801064
0001c0 52 d0 d8 3a 76 4e cc 3b 66 05 da 3a 04 d6 93 3a
       0.0016541576 0.006234939 0.0016633689 0.0011278992
0001d0 ce 5f 22 3b 86 34 8e 3b 0e ef b7 3b f7 37 2b 3b
       0.0024776342 0.0043397574 0.0056132143 0.0026125887
0001e0 12 bc 2d 3c 84 bb a2 3b c0 99 23 3c da 69 b8 3b
       0.0106039215 0.0049662013 0.009985387 0.005627853
0001f0 ea ac ae 3b d8 8d e9 3b e9 0f c6 3b 52 c4 21 3b
       0.0053306716 0.007127505 0.006044377 0.0024683666
000200 de df b1 3b 41 ef a7 3b 60 01 48 39 24 3e 4f 3b
       0.0054282984 0.005124957 0.00019073999 0.0031622732
000210 51 38 ae 3b ea 64 17 b9 68 76 cc 3a cd 23 21 3c
       0.005316772 -0.00014438076 0.0015599253 0.009835196
000220 d0 b7 fe 3b f2 9d 09 3c 21 c1 61 3b ca cb 46 ba
       0.007773377 0.0083994735 0.003444739 -0.00075834675
000230 01 6c 91 38 85 74 c0 3b 85 83 f6 3b 4c f2 da 39
       6.934256e-05 0.005873265 0.0075230026 0.00041760725
000240 58 31 41 bc cb d0 57 bc 1b 28 6c bb f4 2e 99 bb
       -0.01179155 -0.013172339 -0.0036034647 -0.0046747867
000250 3b ed c7 bb 23 71 65 ba 50 1c b2 bb 1c 40 0d bb
       -0.006101278 -0.00087525154 -0.005435504 -0.0021553105
000260 7e 6d 52 bb f9 de 93 bb 5b 46 0b bc f3 03 ab 3a
       -0.003210872 -0.0045126644 -0.008500661 0.0013047442
000270 2c 13 61 3a 94 14 1a 3c 37 bf f7 3a 1d 46 ed 38
       0.00085859257 0.00940432 0.0018901591 0.000113141
000280 6d ec ba bb cb 54 cd bb 8e dd af bb b4 02 0f 39
       -0.0057044537 -0.0062662116 -0.0053669875 0.0001363855
000290 2b c9 a5 bb ff 88 3c bb 6a dd dd bb f1 79 e5 3b
       -0.0050593815 -0.002876818 -0.0067707794 0.007003062
0002a0 29 cd 19 3c d3 a3 d9 3b c6 19 25 38 32 63 4d 3a
       0.009387293 0.006641844 3.936307e-05 0.00078349106
0002b0 16 58 65 3a 51 80 d9 3b c0 bc 15 3b 01 6c 96 3a
       0.00087487826 0.006637611 0.00228481 0.001147628
0002c0 2c 2b 33 bb 4e a8 43 3a ff 25 88 3b 46 d4 56 3b
       -0.0027338965 0.0007463739 0.00415492 0.0032780333
0002d0 60 38 b3 3b ac d6 4b 3a bf a8 ce 3a 66 1b fe 3b
       0.005469367 0.0007775824 0.0015766843 0.007754731
0002e0 80 eb 04 3b 0c f3 5f 3b dd c1 ab 3b 19 db 35 3c
       0.002028197 0.0034171967 0.005241616 0.0110996
0002f0 d2 62 20 3c ce 2b 1c ba 4c 4c 00 3b 58 56 88 3a
       0.009789186 -0.0005957455 0.0019576726 0.0010401709
000300 d1 7c 81 3b d7 24 0e 3c 73 eb 00 3b 75 cf 3e 3b
       0.003951647 0.0086757755 0.0019671589 0.0029115353
000310 ef 1d e7 3b e8 a5 8f 3b 47 71 f9 3b 55 77 1d bb
       0.007053129 0.0043837912 0.0076123807 -0.0024027426
000320 cb be 90 bb 53 e4 90 3b 4e 8b f0 ba af 39 95 bb
       -0.0044172755 0.0044217496 -0.0018352063 -0.0045539956
000330 e7 7c a2 bb e1 ce 2e bc 11 1e af bb a6 64 22 bb
       -0.004958737 -0.010669441 -0.0053441604 -0.002477923
000340 17 53 4f bb 93 ca 42 bb a5 8f 19 bc 19 23 db bb
       -0.0031635219 -0.0029722794 -0.009372626 -0.0066875336
000350 7d 40 36 bc 8b c1 0a bc 63 74 0b bc dc 09 70 bb
       -0.011123774 -0.008468996 -0.0085116355 -0.003662697
000360 0a e2 ec bb fa a9 38 38 63 62 8c ba b2 4d 1c 3b
       -0.0072290944 4.402732e-05 -0.0010710474 0.002385002
000370 8f c0 09 3c 46 4b 43 bb 46 a2 21 bb dc 40 f6 ba
       0.008407726 -0.0029799505 -0.0024663373 -0.001878764
000380 f7 ad a5 3b 06 66 4e ba 55 0c b7 bb 7d a3 e6 bb
       0.0050561386 -0.0007873479 -0.005586187 -0.0070385323
000390 7a 64 fe bb 08 fd a6 bb 96 e4 c7 bb 23 60 cb 3b
       -0.0077634426 -0.0050960816 -0.0061002476 0.0062065287
0003a0 ac 55 a3 ba 90 df 69 3b d7 46 89 bb 7a a5 a5 3b
       -0.0012461445 0.0035686232 -0.004189353 0.0050551267
0003b0 3b bf 13 3a d4 3e 5f ba df 3d 19 3b 44 44 36 bb
       0.00056361005 -0.0008516137 0.0023382825 -0.0027811686
0003c0 41 5f 64 bb c1 a2 02 3b 46 80 0b 3a 11 f1 82 bb
       -0.0034846815 0.0019933435 0.00053215434 -0.0039960225
0003d0 71 22 aa 3a 5c ba 00 3c d3 a7 21 3b 2a 66 df 3b
       0.0012980235 0.007856932 0.0024666681 0.006817599
0003e0 6b 0f 48 3b 4e 4f 2d 3b e1 20 9a 3b 45 81 36 3b
       0.0030526768 0.0026444974 0.0047036265 0.0027848047
0003f0 9a c0 89 3b e1 1c eb 3a 65 b8 7f ba 1f fb 7f 3b
       0.004203868 0.0017937684 -0.0009754955 0.0039059592

classifier.1.bias f4 [2]
000000 28 21 be 3d 6e bb bf bd
       0.09283668 -0.09361921
